…
t Deshpande)The following code is how our CNN looks like. Don’t worry about it if you don’t understand. The idea is the 224 x 224 features from each of our data will go through these network and spit out an answer. The model will adjusts its weights accordingly and after many iterations will be able to predict a random image’s class.#Model descriptionModel: ""sequential_1""_________________________________________________________________Layer (type)                 Output Shape              Param #   =================================================================conv2d_1 (Conv2D)            (None, 222, 222, 128)     1280      _________________________________________________________________activation_1 (Activation)    (None, 222, 222, 128)     0         _________________________________________________________________max_pooling2d_1 (MaxPooling2 (None, 111, 111, 128)     0         _________________________________________________________________conv2d_2 (Conv2D)            (None, 109, 109, 128)     147584    _________________________________________________________________activation_2 (Activation)    (None, 109, 109, 128)     0         _________________________________________________________________max_pooling2d_2 (MaxPooling2 (None, 54, 54, 128)       0         _________________________________________________________________flatten_1 (Flatten)          (None, 373248)            0         _________________________________________________________________dense_1 (Dense)              (None, 64)                23887936  _________________________________________________________________dense_2 (Dense)              (None, 4)                 260       _________________________________________________________________activation_3 (Activation)    (None, 4)                 0         =================================================================Total params: 24,037,060Trainable params: 24,037,060Non-trainable params: 0Here is a YouTube video of Mark Rober (a NASA mechanical engineer) explaining how neural networks work with very little coding involved.Model TrainingNow finally the time has come to train the model using our dataset of 7616 images. So our [X] is a 3D
…
